NN_models/model_v1.pth (torch, 3301 bytes, 4 tensors)

hidden_layer_1.weight f4 [32, 8]
00000000: b3ef 993e 7ace 74be bb06 433e db46 153d
00000010: 1f24 703e 6155 cd3d 1ed2 80bd 3bf6 4f41
00000020: 9a74 9d3e ff84 8c3e be7d 4abe 328d e8bd
00000030: 8e2f 8bbd 9fa5 c73e b4ef c33d 436d 0541
00000040: db24 2ebe 614e cf3d e5eb 4dbe 3fbf 87be
00000050: d876 6f3e 4659 5b3e 3b1e 6c3e 2e07 273f
00000060: 1c89 02bd 3698 303e dfb8 fe3e 324d 0d3f
00000070: fca5 673e 55bc 78be 63de 77be cef5 ffbf
00000080: 5558 383e c31a 8d3e f383 bd3d 2e88 693e
00000090: dd35 38be 44ae 52bd 586a a53e a4f4 80c1
000000a0: cdac 553e ce70 babc c35b ba3e ba2f 083f
000000b0: 5465 abbe 7a6a b7be a47e d5bd cea4 1dc0
000000c0: b19c 4b3e f2fc debd 2800 9bbe d907 9abe
000000d0: bc38 773e 8e75 bc3e 3848 5d3e 7006 b0c0
000000e0: e315 9237 1618 643e 7751 b73e b011 103f
000000f0: 6bf0 a23e 5c74 03bf 7160 1dbe bd52 97be
00000100: 0adc 99be 7442 783e cbb7 413e db2f bc3e
00000110: d26d 94be 4fdd 8cbe 55a9 6c3e 9793 193f
00000120: d9ce 89bb 6376 a03e 310c f6bd c16b 8e3e
00000130: 66c8 08be 4cbe 4b3e 638a 983d 7c2a 82c1
00000140: 4248 93bc c451 8e3d bfb5 87bd 0f62 b0be
00000150: f6a4 0abe 0b6c 373d 8033 78be 7094 933e
00000160: 6dee 383d 5fb8 953e 119e 96bd 2215 0c3d
00000170: 98cb 353e 3616 473e f5ee 40bd cd48 9340
00000180: c47b 553e f689 16bd c42b 273e 4b48 7d3e
00000190: 96ed 7fbe e4c5 ac3e 9758 49bd b1b8 2041
000001a0: 3584 a63e 41c5 81be 347f 9dbd 8569 87be
000001b0: 7e60 d43e b5bc c23c 6f14 0d3d 85db ef40
000001c0: 6f06 8ebe 464f 94be b73f cc3e e76e 4f3d
000001d0: 2a0c b53e 44ec 45be 8240 c63d ea6f 15bf
000001e0: 5631 753e cfd6 0d3e 56d9 933a 3b79 143f
000001f0: a7a4 073e 4703 7dbe da38 c4be 59a9 ae40
00000200: 9976 b33d 00d6 f2bc 00b9 82be 63f9 84be
00000210: 02cc 9cbd 56e3 00be fa89 213e b045 06c1
00000220: 525e e8bc 05e5 963e ff24 a5be 3d9d 4dbe
00000230: 0d80 903e ba67 1d3f f56a c13e b371 2f40
00000240: fdbf aebd 3d09 40bf 8436 8d3d 3eeb 123e
00000250: 8a74 b33e 9269 1a3d ba0c ea3e 61be 8040
00000260: 15af 5d3e 0535 b1be 9ef8 013e d8c9 1ebe
00000270: 3afc 993e c4f7 753e 2906 1f3b 1b3a 5bc1
00000280: 2a08 42be 9a59 9c3e 0d16 5dbc 8256 ec3d
00000290: 6a83 213d c9c4 073d 2113 033e 4bee 17bf
000002a0: 9b37 9abd a63a 3dbc a5de 6fbe 9708 303e
000002b0: 0fda 62be c1aa 843e 70e8 70bb 980c 0bbe
000002c0: ee71 163e 2c8f c6be 5940 d63e c025 de3e
000002d0: 6cb8 7cbe 2186 97be b2f4 2b3e c1e1 b0c0
000002e0: d84b 623e d2c5 5d3e 2309 ccbd 393f 96be
000002f0: ed16 bebd 0182 a03d 5b09 623e 5a7d 77c1
00000300: 69cf a33e 7580 aabc e37e a23d 37df 5abe
00000310: b646 25be 2110 023c 31b0 84be a9f2 dc40
00000320: 1864 b33d 998b 2cbe 0a08 96bd b1b6 d7bd
00000330: 4ce3 d63e 41f9 a0bd c873 3a3e cb17 7bc1
00000340: 1e58 913e dabf 703e f541 92be b005 1dbe
00000350: a2e3 91be d7d3 afbd bcb7 cfbe b6da 9940
00000360: ca15 9f3e 4c37 0dbe 5b92 9f3e 6c8d 82be
00000370: dd1a c63e 68f3 5dbe 2105 90be d1f9 2cc1
00000380: ebe3 01be f839 36be 1011 b23e d48c 6e3e
00000390: f94f c13e 75b8 383d 3911 253d c11d 9f40
000003a0: b756 9abc a23c dabd 63fb f53e 8637 d93d
000003b0: 84f1 623e 6348 f53d 40df abbe a8e0 44c0
000003c0: aa1c f63d 6173 473e 172d b6be dbdf 9bbc
000003d0: f591 39be b10a 2f3e 8e8a ff3e 756e 7240
000003e0: 3aa2 6e3d e36a a83e dc81 4dbe ccd5 31be
000003f0: 973f 60be 0f59 093e 73d3 e2bd 5299 78c1
0.30065688 -0.2390689 0.19045536 0.036444526 0.23451279 0.1002605 -0.06290077 12.997615
0.30753022 0.27445218 -0.1977453 -0.11355056 -0.0679618 0.38993546 0.09567204 8.339175
-0.17006247 0.101223715 -0.20109518 -0.26513097 0.23385179 0.21420774 0.23058407 0.6524533
-0.03186904 0.17245564 0.4975042 0.55195916 0.22621912 -0.24290593 -0.24205928 -1.9996889
0.18002446 0.2755948 0.09253683 0.22805855 -0.17989297 -0.051435724 0.32307696 -16.119453
0.208667 -0.022758868 0.36398134 0.53197825 -0.33475745 -0.35823423 -0.104245454 -2.4631839
0.19883992 -0.10888089 -0.30273557 -0.30084112 0.24142736 0.36808437 0.2160958 -5.500786
1.7414748e-05 0.22274813 0.3580434 0.5627699 0.3182405 -0.51349425 -0.1536882 -0.29555312
-0.3005069 0.242441 0.18917768 0.3675526 -0.28990036 -0.27512595 0.2311147 0.5999083
-0.0042055664 0.31340322 -0.12014044 0.27816585 -0.13357696 0.19896811 0.0744827 -16.270744
-0.017978791 0.06949189 -0.06626462 -0.34449813 -0.1353949 0.044780772 -0.24238396 0.28824186
0.045149256 0.29242226 -0.073543675 0.03419984 0.17753446 0.19442067 -0.047102887 4.602637
0.20847994 -0.036752664 0.16325289 0.24734609 -0.24992976 0.3374473 -0.04915675 10.045091
0.3252274 -0.25345805 -0.07690278 -0.26447693 0.41479868 0.023771623 0.034443315 7.495547
-0.27739283 -0.2896673 0.3989236 0.050642874 0.35360843 -0.1932841 0.09680273 -0.5837389
0.23944601 0.13851474 0.0011279981 0.57997483 0.13246404 -0.24708281 -0.38324624 5.4581723
0.08762855 -0.029643059 -0.2553177 -0.25971517 -0.07656099 -0.12586722 0.1577529 -8.392014
-0.028365288 0.29471603 -0.32254788 -0.20079513 0.28222695 0.614864 0.37776914 2.7413146
-0.085327126 -0.75014096 0.06895164 0.1434755 0.3504985 0.037698336 0.45712835 4.0232396
0.2164882 -0.34610763 0.12692496 -0.15506685 0.30075246 0.24020296 0.0024265146 -13.701686
-0.18948427 0.3053711 -0.013494027 0.115399376 0.039431967 0.033146653 0.12800266 -0.5934798
-0.07530137 -0.011549627 -0.23424776 0.17190777 -0.22153495 0.25911525 -0.0036759637 -0.13579023
0.14691898 -0.38781106 0.41845968 0.43388176 -0.24679726 -0.2959452 0.16792563 -5.527558
0.22099245 0.21657494 -0.0996268 -0.2934511 -0.092817165 0.07837296 0.22073881 -15.468103
0.3199418 -0.020813206 0.07934358 -0.21374212 -0.16140255 0.007938416 -0.25915673 6.9046216
0.08759326 -0.16850127 -0.07325752 -0.105328925 0.4197029 -0.078600414 0.1820823 -15.693309
0.2838754 0.23510686 -0.28565946 -0.15334201 -0.28493983 -0.08585327 -0.40569866 4.807948
0.3107131 -0.13790625 0.31166348 -0.2549852 0.3869237 -0.21674883 -0.28128913 -10.81099
-0.126846 -0.17795551 0.34778643 0.23295909 0.37756327 0.045097787 0.040299628 4.972382
-0.018840177 -0.10656096 0.48043355 0.106062934 0.22162443 0.11976697 -0.33568764 -3.076212
0.12017186 0.19477607 -0.35581276 -0.019027641 -0.18122084 0.17093922 0.49910396 3.7879918
0.05826018 0.32894048 -0.20069069 -0.17366713 -0.21899258 0.1341288 -0.11075487 -15.537432

hidden_layer_1.bias f4 [32]
00000000: f0f3 3b3f c2e9 2a3f eb27 da3e edb6 34bf
00000010: b033 68bf c1fb 5ebf fbf4 18bf db75 afbd
00000020: 8ad2 e3be ffec 0fbf 4a2a acbe 8f4b 3a3f
00000030: b693 913f 370c 4b3f fd22 11bf 6c74 013f
00000040: 23ea 5bbf 84a8 873f 4c80 203f 1dc9 7bbf
00000050: faa1 893c 3ba5 90be 24d3 28bf 55a2 55bf
00000060: f4c2 5e3f d2b8 62bf 0c94 e03e 65b1 e4be
00000070: d59d 55be 26ff 1ebf 0dfd 573f bd15 3cbf
0.73419094 0.66762936 0.4260858 -0.7059162 -0.9070387 -0.87102896 -0.5974881 -0.08567401
-0.44496566 -0.56221 -0.33626014 0.72771543 1.1373203 0.79315513 -0.5669401 0.5056827
-0.8590414 1.0598302 0.62695765 -0.9835375 0.01680087 -0.2825106 -0.65947175 -0.83450824
0.87016225 -0.88563263 0.4386295 -0.4466659 -0.2086099 -0.62108076 0.843705 -0.7347067

output_layer.weight f4 [3, 32]
00000000: 276f 5e3c 8b26 183e 175d b7be 5ace 443e
00000010: 8dbb 44be c872 383e 4136 c1bd 0f9b 333d
00000020: 1b39 293e 0d41 c4be a27a d8bd f55b e93d
00000030: 4c9d 373d 8e19 a03d 37bc 2e3e c605 4d3e
00000040: 7860 9abe facd 4ebc 625d d4bd 445c 8fbe
00000050: 94bb f0be 773a 793d 85f9 8bbd 8d93 71be
00000060: aba6 1f3e 4b9c 14bf 191b b03d fc69 05be
00000070: 5f29 9a3e 8015 fcbd 9294 163d f475 1bbf
00000080: eeb2 e33c 26cc 783e 9d9e 4d3e 2f80 4cbf
00000090: 4cbf 28be 69c8 9ebd 39db 9a3d e250 06bf
000000a0: 7538 a23c bcda d5be e9fb 86bc 14c0 1d3e
000000b0: bbba d73d 69a4 543e 8b4a b9be 6e3e 393d
000000c0: 1e8e d8be c39a 2d3f 3a72 df3e c831 9dbe
000000d0: 7661 7a3e 063b 28be 3dfe 9fbe 554f 70be
000000e0: 088c 833d a474 dabe 48a7 3ebd 9467 3cbe
000000f0: 917b 1e3e 6b92 72bf 37ec 2a3f 5348 51bf
00000100: 1b9b a9be 424f 3bbe 80bc 023d 3349 7c3e
00000110: caa7 773e 3e58 6b3e b3bc 893e 579b 1dbe
00000120: 9150 77bd 2981 573f a8c3 203e 4d5c fabd
00000130: 4c3d bfbe 67f1 96be 77db ae3e 4bf9 ecbd
00000140: 8298 c63e c432 adbe fbe5 b6be 1827 a23e
00000150: f83e 023b 463d 4abd 8f59 923e 690b 943e
00000160: 2d1f 87be b36e 0a3f c416 87be 8681 5a3e
00000170: 10bf b2be 3dbe 623f df93 a0be b6dd 2b3f
0.0135763055 0.14858453 -0.3581321 0.19219342 -0.1921217 0.18012536 -0.09434176 0.043849047
0.1652569 -0.3833088 -0.10570265 0.113944925 0.044827744 0.07817374 0.17063986 0.20021734
-0.30151725 -0.012622351 -0.10369374 -0.2800008 -0.4701811 0.060846772 -0.068347014 -0.23591442
0.15590923 -0.58050984 0.085989185 -0.13028711 0.3010969 -0.12308788 0.03676278 -0.6072686
0.027795281 0.24296626 0.20080037 -0.7988309 -0.16479224 -0.07753069 0.07561345 -0.5246717
0.019802311 -0.41768444 -0.016477542 0.15405303 0.10533663 0.20765842 -0.36189684 0.045225553
-0.42295927 0.6781427 0.43641835 -0.30702043 0.24451241 -0.16428766 -0.31248656 -0.23467763
0.06423193 -0.42667115 -0.04654625 -0.18398887 0.15476824 -0.94754666 0.66766685 -0.81750983
-0.3312615 -0.18291953 0.03191805 0.24637298 0.241851 0.2298288 0.2690178 -0.15391289
-0.06037957 0.8418146 0.15699637 -0.12224636 -0.37351453 -0.2948105 0.34151813 -0.11570986
0.3878823 -0.33827794 -0.35722336 0.3167045 0.0019873958 -0.04937484 0.28583953 0.28914955
-0.26390973 0.54075164 -0.26384556 0.21338472 -0.34911394 0.8857153 -0.31362817 0.6713518

output_layer.bias f4 [3]
00000000: b46d 613e 013e c83e 4cce 56bf
0.22014505 0.39109805 -0.83908534
