NN_models/NN_model.pth (torch, 7909 bytes, 4 tensors)

hidden_layer_1.weight f4 [128, 8]
000000 a1 a3 15 bc a9 39 6b 3e 78 19 08 be e8 18 d6 3e
       -0.00913325 0.22971214 -0.13290966 0.41815877
000010 44 0a 1b 3d d2 16 5f 3e 54 8f 2d 3e c9 b8 07 c1
       0.037851587 0.21786049 0.16949207 -8.482614
000020 1c 1b 14 3e 1b a6 23 3d 53 b5 9a 3e b6 62 cc 3e
       0.14463466 0.039953332 0.30216464 0.3991906
000030 99 8f af 3e 65 9e 48 be e6 63 75 bd 7b d6 bb bf
       0.34289244 -0.19591673 -0.059909724 -1.4674829
000040 58 b0 1a 3b 5f a6 ff be a8 2a 98 3e 07 4e 81 bd
       0.0023603644 -0.4993162 0.29720044 -0.06313711
000050 fa 02 19 be aa 78 3e be 62 d0 6a 3d a1 7f 89 bf
       -0.14942542 -0.18600717 0.057327636 -1.0742074
000060 b4 4b c9 3d 2a 39 ff be 92 68 90 bd 10 e1 67 be
       0.09828892 -0.498483 -0.07051195 -0.22644448
000070 7b b3 f1 3d 48 e2 f7 bd a0 df bf be 4a 85 cc be
       0.11801811 -0.121037066 -0.374753 -0.3994544
000080 c9 7d 64 be 49 06 19 be 86 7d 9b 3e ae 32 ae 3e
       -0.22313608 -0.14943804 0.30369204 0.3402304
000090 1c 48 b6 bc 25 d2 1d 3d a1 02 8b bd 80 29 0a bf
       -0.022251181 0.038530488 -0.06787611 -0.53969574
0000a0 1d be 46 bc 2f 80 15 3e 35 62 b2 3e 67 2f d5 3e
       -0.0121302875 0.1459968 0.3484055 0.41637728
0000b0 cc 9a 35 3e c4 c3 c3 be 38 96 48 be 3d 96 a7 bf
       0.17734832 -0.38235295 -0.19588554 -1.3092724
0000c0 fa ad 0d be 65 a9 cd 3d 37 92 68 3e d8 b7 9a 3e
       -0.13835898 0.10042075 0.22712027 0.30218387
0000d0 d9 dd 96 3d 09 98 c6 3e 5c e4 d2 bd 29 45 21 c0
       0.07366533 0.3878787 -0.10297462 -2.5198462
0000e0 92 94 58 3e 5f b3 67 3a fc 22 67 be 09 ad 19 3e
       0.21150425 0.0008838679 -0.22571939 0.15007414
0000f0 aa a3 9e be 46 2e a1 bd fc 1e 03 bd d1 58 e5 3f
       -0.3098424 -0.07870154 -0.03201197 1.791773
000100 91 b5 0f 3e dc 34 25 be f5 18 47 be c8 f7 bf 3c
       0.14034106 -0.16133446 -0.19443114 0.023433581
000110 90 ce 41 bd c6 e3 4e be 8d 0d a6 3d a8 12 0c c1
       -0.047316134 -0.20204076 0.08108053 -8.754555
000120 2a 29 3f 3d fc 73 66 3e 42 63 bc 3e 91 c9 3e 3e
       0.046670116 0.22505182 0.36794478 0.18631579
000130 71 f6 ef 3d 5b e2 62 be f9 78 9e be 13 76 a5 bf
       0.11716927 -0.2215666 -0.3095167 -1.2926658
000140 11 b3 f0 be c8 d0 1b 3e 61 0a 95 be 6d 1c f2 3c
       -0.47011617 0.15216362 -0.2910948 0.02955457
000150 0d 4e 0a 3e ec d4 5f 3e f9 77 34 be ab 75 bc be
       0.13506337 0.21858567 -0.17623891 -0.36808524
000160 77 2c 6b 3e 41 1f a4 be 8d f1 f3 3d ea 9d c0 3e
       0.2296618 -0.32055095 0.119113065 0.3762048
000170 ab a3 19 3e b9 f1 3a be 28 46 77 3e df 84 b3 3f
       0.1500384 -0.18256272 0.24147856 1.4024924
000180 8a b7 d1 bc 77 dc 99 3e c7 b3 48 be 96 d4 7a 3e
       -0.025600214 0.30051014 -0.1959983 0.24495158
000190 7a 27 c9 3d 22 0e ab 3e 5f 19 86 bb 14 2c be 40
       0.09821983 0.3340922 -0.00409238 5.9428806
0001a0 04 65 44 be d0 48 41 be 54 2d 92 be 6c 99 82 3a
       -0.1917916 -0.18875432 -0.28550208 0.0009963936
0001b0 9a 84 88 be 85 e6 9b 3c 3d 5d 94 3e d0 09 8d 3e
       -0.26663667 0.019030819 0.28977385 0.2754655
0001c0 d9 17 00 3e dd 18 8d 3e 90 05 5f 3d f9 ec 4b be
       0.12509097 0.27558032 0.054448664 -0.19914617
0001d0 85 88 7f be c9 07 db 3e ae 1f 27 bd 70 30 10 40
       -0.24954422 0.42779377 -0.040801696 2.2529564
0001e0 d7 f0 a4 3e 65 aa b9 be af 1b 06 bd 78 0b e3 be
       0.32214996 -0.36262813 -0.032741245 -0.44344687
0001f0 cd da 45 be 19 9f d3 bd e7 11 a1 3d 5b 1a 7a 40
       -0.19321747 -0.1033308 0.07864743 3.9078586
000200 96 8a a2 be 01 bb 2b 3e a1 2e c9 bc 3a 8f 4e 3e
       -0.31746358 0.16770555 -0.024558367 0.20171824
000210 e3 e2 05 bc 7e a9 1f 3e a2 63 01 bc 07 b0 c0 bf
       -0.00817177 0.15592 -0.0078972895 -1.5053719
000220 4f 8d 2f be 27 6b 4b 3e 9f a6 6a be bb 40 1e 3e
       -0.17143749 0.19865094 -0.22915123 0.1545438
000230 d3 e1 95 be dd e9 dd bd 32 bf 13 be c1 c0 83 be
       -0.29273853 -0.108356215 -0.14428404 -0.25732997
000240 e9 dd 02 be 09 91 a5 be d3 7e d1 3d 27 b3 aa 3e
       -0.12779965 -0.32337216 0.10229268 0.33339807
000250 f4 dc 16 be 18 c0 76 3e 2e 7f 04 be 93 b9 78 c0
       -0.14732724 0.24096715 -0.1293914 -3.8863266
000260 0a df 39 be 2e 46 9a be fe cb cf 3e 71 d7 b0 3e
       -0.18151489 -0.30131668 0.4058532 0.3453937
000270 51 94 45 3e b1 7c c6 bd 0d b5 dc 3d fa 15 c4 40
       0.1929486 -0.09691752 0.1077672 6.1276827
000280 06 cd 81 be 1b 14 6c 3e a4 fc 30 3e 96 bc 92 3e
       -0.25351733 0.23054545 0.17283875 0.28659505
000290 ba 89 21 be fb a4 82 3e 8b 38 98 3e a6 97 ba be
       -0.15775195 0.25516495 0.2973064 -0.36443824
0002a0 ed fc b0 bd ae 33 f9 bd 6a 2a 37 be 53 cc 43 bd
       -0.08641992 -0.1216806 -0.17887273 -0.04780228
0002b0 09 d2 02 bd c1 8a 77 be b8 19 94 3e e7 dc d7 3d
       -0.031938586 -0.24174024 0.28925872 0.10540181
0002c0 cc e3 74 3e 58 76 9b be b7 3f 73 3e cd 64 98 be
       0.23915023 -0.30363727 0.23754774 -0.29764405
0002d0 b8 5a 55 3d 25 39 7f 3e ec fb 1f 3e 19 42 55 bf
       0.05208847 0.24924143 0.15623444 -0.8330398
0002e0 27 25 04 3e b9 1f 76 3e 89 f3 d7 be 79 ad 0a 3e
       0.12904797 0.24035539 -0.4217799 0.13542737
0002f0 2f 75 1c 3d d6 1e a1 3d 34 55 b4 3e 78 bf 67 40
       0.038197692 0.078672096 0.35221255 3.6210613
000300 85 a3 e1 3c d5 47 94 3e a1 7d ac bd 28 4a cc be
       0.027543793 0.28961053 -0.08422399 -0.39900327
000310 33 b6 bb be 6e ac 67 be 1e af a7 3c d8 a2 68 c0
       -0.36662444 -0.2262437 0.020469245 -3.6349392
000320 63 51 67 3e 7b a4 e7 3c 0f d1 a7 be 97 40 38 3d
       0.2258964 0.028276673 -0.32776687 0.044983473
000330 bf b9 9b 3e 85 08 40 be 28 30 13 3e 53 2c be 40
       0.3041515 -0.1875325 0.14373839 5.9429107
000340 22 c2 7b 3e 28 1f f8 bd 21 58 94 3d d6 cc 4f 3e
       0.24585775 -0.121153176 0.07243372 0.20292982
000350 f6 da ce 3c a2 b4 30 3d b3 f9 a5 be a8 44 65 bd
       0.025250893 0.043141015 -0.32417068 -0.05597368
000360 1b c1 72 3e 76 2d 99 3e ce d8 68 bd 35 30 05 3d
       0.23706476 0.29917496 -0.056847386 0.032516677
000370 24 b6 86 be 4e 01 b6 3d 85 6e 81 be 56 64 96 bf
       -0.26310837 0.088869676 -0.25279632 -1.174937
000380 9d f9 2f 3e d7 82 74 be b6 44 79 3e 1d e1 46 be
       0.17185064 -0.23878036 0.24342617 -0.19421811
000390 c9 ac b1 bc 04 da df 3c e4 3f 53 be 47 95 38 41
       -0.021688836 0.027325638 -0.20629841 11.536445
0003a0 6f ea 39 bc 8f 83 41 3e d3 82 95 bc e0 77 15 be
       -0.011347397 0.18897842 -0.018250858 -0.1459651
0003b0 c4 80 54 3d 2a 6b ee bd eb 7b 0e be 9d 3e ee 3f
       0.051880613 -0.11641534 -0.13914458 1.8612858
0003c0 6a ae 90 bd e3 31 2e bc ad 06 a2 3e 7c eb 7a be
       -0.07064517 -0.010632011 0.31645718 -0.24503893
0003d0 43 ba 51 3e fc da 89 3d be 0c b6 bd 6f 41 92 c0
       0.2048121 0.06731221 -0.08889149 -4.5704875
0003e0 0e e1 b1 bc 8f 7f e4 bd e2 88 e6 bd 3e 05 bd 3e
       -0.02171376 -0.11157142 -0.11256577 0.36918062
0003f0 5e a9 2c 3e c8 6b 8d 3e b2 4c 54 3e cb 0d bf c0
       0.16861483 0.27621293 0.20732382 -5.9704337

hidden_layer_1.bias f4 [128]
000000 ee 56 0d bf 98 2e a4 be a2 1c 30 bb eb 10 c6 bd
       -0.5521077 -0.32066798 -0.0026872535 -0.096711956
000010 3f 5c 05 bf d7 29 e7 be 40 10 0c 3f 9f 5f 27 3f
       -0.5209388 -0.4514911 0.54712296 0.6538028
000020 b9 7f bf be be ea 31 bf a8 7c c2 3e 50 f3 ff bd
       -0.37402132 -0.69498813 0.3798573 -0.1249758
000030 b5 2e d0 3e ad 4d 34 be 8b 73 2d 3f a6 88 13 3f
       0.40660635 -0.17607756 0.6775443 0.57630384
000040 a2 0f b3 bd b5 a0 62 be 95 41 5d be fa 4f 90 3e
       -0.08743216 -0.22131617 -0.21607049 0.28186017
000050 9a 55 d9 3e c2 21 5c bc 69 ad 83 be 7c d1 29 3f
       0.4244812 -0.013435783 -0.2571824 0.6633527
000060 f2 be cc be f3 ad 3b 3f cd 4d ae 3e 45 74 13 bf
       -0.3998943 0.733123 0.34043732 -0.5759929
000070 5f c2 85 3e d9 f6 8a 3e 06 8d f5 3a 29 31 18 bf
       0.26124856 0.27141455 0.0018734045 -0.5945001
000080 c2 c9 4a bd de b9 6f bf 18 ed a5 3d 81 ca 58 bd
       -0.049508817 -0.93642986 0.08101863 -0.052927498
000090 89 ca 38 3e 31 35 62 bf ae c3 e5 3e a7 1c 7e be
       0.18046011 -0.88362414 0.44875854 -0.24815618
0000a0 4c a1 bb 3e c5 a0 87 3e 4f f2 d0 be 62 93 92 3e
       0.36646497 0.26489845 -0.40809867 0.2862807
0000b0 86 b0 c0 be b4 04 20 be f5 80 18 bf 26 4d f7 bd
       -0.37634677 -0.15626794 -0.5957177 -0.12075262
0000c0 ae b7 a7 3b 8c 29 d7 bc ad 8e 4c be 32 41 62 be
       0.005118332 -0.026264928 -0.19976301 -0.22095183
0000d0 7f 3e c1 be 71 f2 fe bd db d8 cb be 0c 2a e9 3e
       -0.37742993 -0.12448586 -0.39813885 0.45539892
0000e0 ef de 3c bf a4 ca 51 bf cd 85 f2 3e 5d 15 05 3f
       -0.7377767 -0.8194983 0.47367707 0.5198572
0000f0 de 88 90 be f0 52 aa 3c 45 f8 98 3e e0 5a ad 3e
       -0.2822942 0.0207915 0.29876915 0.33858395
000100 ff 0f 08 bf b6 19 62 3f 65 14 80 3e 80 15 07 3f
       -0.5314941 0.8832048 0.2501556 0.5276718
000110 86 75 26 3e a1 7b 65 3e aa 8d 7e 3f 7d 2b 7e bd
       0.16255769 0.22410442 0.9943491 -0.062053192
000120 0e 72 24 be a5 b7 4d bf 37 60 2e bf 07 33 d4 3e
       -0.16059133 -0.80358344 -0.6811556 0.4144518
000130 1d 60 52 3e 4f 77 9f be a8 00 95 be d2 42 71 3f
       0.20544477 -0.31145713 -0.29102063 0.94242585
000140 fc 18 2d bf 3b a3 4c 3e 83 ba 05 3f 12 bd ec be
       -0.6761625 0.19984142 0.5223772 -0.46238
000150 a4 0d 7c 3d bf e9 a4 3e df c9 d9 be bc 98 28 bf
       0.061536446 0.32209584 -0.42536828 -0.65858054
000160 db 09 bf 3e be 7d 84 bc aa f2 0d 3e e5 e7 81 be
       0.37312207 -0.01617324 0.138621 -0.25372234
000170 0d dc 80 3e 31 98 23 3f b3 3e 08 3c 80 a3 26 3e
       0.25167885 0.639041 0.00831573 0.16273308
000180 4b 5f 3f 3e 98 ec 8c be 81 6e f6 bd 5b e8 3e 3e
       0.18688695 -0.27524257 -0.12032796 0.18643324
000190 f2 0c f5 3e 34 22 36 3e bc ed 83 be cf 13 21 bf
       0.4786144 0.17786485 -0.25767314 -0.6292085
0001a0 a1 b1 9a be ef 1c f5 3e 94 b6 d2 3e 3e dd c6 be
       -0.30213645 0.47873637 0.4115492 -0.3884067
0001b0 4e 18 fd 3e 78 82 d1 be e2 97 26 3e 34 9c 3c be
       0.49432606 -0.40919852 0.16268876 -0.18418962
0001c0 e6 2d 16 bf 57 42 8c be 4f 0d 1b bf 9c 85 b1 3e
       -0.58663785 -0.27394363 -0.6056718 0.34672248
0001d0 15 4b 7d 3e 6f a4 64 bd 35 61 47 bf 6d 18 4d bf
       0.24735673 -0.05582088 -0.778827 -0.80115396
0001e0 1d 52 35 bd 29 83 a9 3d 73 1e 5b 3e 69 23 5b 3e
       -0.044267762 0.0827697 0.21398334 0.21400227
0001f0 76 0e 07 3d e5 e8 03 3f fb 21 95 bc 53 2c 83 bd
       0.032972775 0.51527244 -0.01820468 -0.064049385

output_layer.weight f4 [3, 128]
000000 aa af 7d be 41 ea c1 3d 84 6d 08 bf 2b 68 ae 3e
       -0.24774042 0.094685085 -0.5329211 0.3406385
000010 62 be 11 3e 3a 4a 6e 3e 4f 0f 38 be b6 18 6a 3b
       0.14232782 0.23270503 -0.1797459 0.0035720295
000020 2b 88 3c be 78 b5 7a 3d 50 f4 55 be a5 ba e1 3d
       -0.18411319 0.06120822 -0.20893979 0.11021928
000030 3b ba fb 3d 36 e0 87 bd 43 6d 2f bb c0 7f 6b 3c
       0.1229138 -0.06634562 -0.0026768006 0.01437372
000040 71 03 04 3d a2 56 04 3d 13 a2 51 bd 3c 49 88 3c
       0.032229844 0.032309182 -0.051179957 0.016636483
000050 9d 31 42 bd c3 6e 48 3d fc 08 94 bd ed e1 01 3d
       -0.047410596 0.048933756 -0.07228276 0.0317096
000060 3b ff b0 bd 2a 1f 9c 3c f6 30 31 3d 6c 6e 9c bd
       -0.08642431 0.019057829 0.043259583 -0.07638249
000070 e8 09 08 3e 94 8a a3 3e 8e 05 de be c1 5c 4c be
       0.13285029 0.31941664 -0.43363613 -0.19957258
000080 37 cd 27 bd f3 fc c3 bd 9a 62 06 3d b1 45 03 3e
       -0.040967193 -0.095697306 0.032808878 0.12819554
000090 54 95 07 3e e4 f6 18 be 3a 71 85 bd 2d ec eb 3d
       0.13240558 -0.14937931 -0.06515737 0.11519656
0000a0 a6 98 49 bd 71 3a 21 bc f3 19 32 3d 8c a1 60 bc
       -0.049217843 -0.009840594 0.04348178 -0.013710391
0000b0 f3 ac ad bd bc 9f da 3a f5 f6 90 be 1f 99 60 3e
       -0.08480253 0.0016679685 -0.28313413 0.21933411
0000c0 5b 5c 53 3a 70 40 48 be 06 b2 1d 3d 1c 2a 51 be
       0.0008062773 -0.19555831 0.038499855 -0.2042622
0000d0 5b 25 fc 3d 9d 0b c9 be 64 39 cd bd 76 a5 31 3d
       0.123118125 -0.39266673 -0.10020712 0.043370686
0000e0 43 71 d7 3b 6d 6e 2e 3d a2 e1 25 be 54 bb a6 3d
       0.006574781 0.04258578 -0.16199353 0.08141199
0000f0 db 05 26 be d7 85 00 3d f0 3e 4b 3e d3 97 81 be
       -0.16213171 0.03137764 0.19848228 -0.25311145
000100 d5 41 d5 3c 1a 5a 6b 3e 90 c7 fc bc 41 83 3b 3d
       0.026032368 0.2298359 -0.030856878 0.04577947
000110 26 9b 0b be d1 d4 85 3d 45 ac 30 bc 80 5c 09 be
       -0.13633403 0.06534732 -0.01078326 -0.13414192
000120 17 c9 fb 3c 6a d6 96 be 4c 7a df 3d 9e 56 8a 3d
       0.030735536 -0.2946046 0.10911998 0.06754802
000130 e1 e3 3f 3d b1 52 60 bd ff 78 4c bd 64 fc eb 3c
       0.04684818 -0.05476636 -0.04992008 0.028806873
000140 ca 29 7b be 26 2e 9c bd 0b 9f 05 3f 3d fd 4a 3d
       -0.2452766 -0.076259896 0.52195805 0.049557913
000150 91 81 74 3d d1 2a 53 ba 74 65 1b bd 51 40 4b 3d
       0.059693877 -0.00080553914 -0.03793855 0.049621884
000160 d4 c6 8e 3d ac 2e ae bd bb 29 30 3e fa 26 03 bd
       0.06971517 -0.08504996 0.17203419 -0.032019593
000170 6e c1 ac bd dd 17 d6 3c e6 ad 82 3d f3 4f 9b bd
       -0.08435331 0.026134426 0.06380825 -0.075836085
000180 77 56 bf bc fd 50 07 3d 0d 0a 6e 3e e1 20 0f 3d
       -0.02335666 0.03303622 0.23246022 0.034943465
000190 a1 41 c7 3b 80 09 a3 3d 96 1b 0d 3d 58 b5 2a 3b
       0.0060808216 0.07960796 0.034450136 0.002604803
0001a0 bb ad a2 3d 2e 28 88 3e c9 ea 52 be 15 ee ef bc
       0.07943293 0.26593155 -0.20597376 -0.029288331
0001b0 7d d2 da 3c 5d 44 49 3d 30 71 bd bc 09 14 89 bd
       0.026711697 0.049137462 -0.023125261 -0.066932745
0001c0 66 2a e0 bd 34 bd e8 be d5 50 33 3c 68 5e b2 3d
       -0.10945587 -0.4545685 0.010944565 0.08709413
0001d0 db 49 0f 3e 18 55 0f bd e8 82 ed 3c 40 22 5b bd
       0.13993017 -0.03499326 0.028993085 -0.05349946
0001e0 be 81 0d bd 0e 5b 80 3d b7 2b 96 bc 36 a0 86 bd
       -0.03454756 0.06267367 -0.018331392 -0.065735266
0001f0 c7 67 cb 3d 2f 57 3b 3e cf ce 1c 3e 7b 06 29 bd
       0.09931903 0.18294977 0.15313266 -0.041265946
000200 b5 66 c8 be 15 71 81 bd d3 f3 1d 3f 5a 1a 83 be
       -0.3914086 -0.06320397 0.6170017 -0.25606042
000210 2b 44 99 be 2c 2b f9 be a1 1e 5f 3c e6 0a c3 3d
       -0.2993482 -0.4866575 0.013618142 0.09523563
000220 3f 6e e4 bd 13 42 80 bd 12 ce c8 3d d7 27 f4 bc
       -0.1115384 -0.06262603 0.0980493 -0.029804153
000230 58 20 58 3e 82 11 21 3d a2 bb ec 3d a7 93 ec 3d
       0.21106088 0.039323337 0.115592256 0.115516
000240 d3 62 f8 bd 90 c2 96 3d ea 7d 00 be 9c fc 66 3c
       -0.12128224 0.073613286 -0.12548032 0.014098313
000250 f2 68 ab 3d c0 bf 43 3d 21 49 b6 3d 3c 1a 0e 3e
       0.08369626 0.04779029 0.08900667 0.13877195
000260 3c 38 41 bf d2 9a 2e 3d e9 19 56 bd 6e 30 17 3d
       -0.7547643 0.042628117 -0.052270804 0.03691142
000270 10 af fe 3d f8 67 48 3d 97 99 34 3d 48 5b c4 be
       0.12435734 0.048927277 0.044091787 -0.38350892
000280 12 b7 3f 3c a4 5a 89 be b3 43 88 3d be 82 a6 bd
       0.011701362 -0.26826966 0.066535376 -0.08130406
000290 91 cd 69 bd c2 44 b7 be 73 32 6d bc af aa 28 be
       -0.05708081 -0.35794646 -0.01447736 -0.1647136
0002a0 ee 8e b4 3d 36 df e6 3c 7d 0b bf be 77 11 95 bd
       0.08816324 0.028182607 -0.37313452 -0.07278722
0002b0 55 07 2e 3d 7c e4 d3 3d a4 2e 8c 3e 8b 7b 26 be
       0.04248746 0.10346314 0.27379334 -0.16258065
0002c0 5d 58 88 3d ba 40 dc 3e 8f 0b 31 be 46 b7 8a be
       0.06657479 0.43018132 -0.17289566 -0.27092952
0002d0 34 45 ec 3d a1 62 3a 3f aa a6 40 be d8 af d0 3e
       0.11536637 0.72806746 -0.18813577 0.40759158
0002e0 7e 36 d9 bd 6c e4 f5 bc 89 ca a9 3e c1 fa a2 3d
       -0.10606097 -0.030016147 0.33162335 0.07957984
0002f0 86 fc fb bd 8c c8 7c bd cf f5 3d 3e 05 66 98 3e
       -0.123040244 -0.061714694 0.185508 0.29765335
000300 a3 75 91 bd 01 36 93 3e f0 a4 ed 3c 8b 1a 2d 3e
       -0.071025155 0.2875214 0.029009312 0.16904657
000310 68 50 42 3e 10 b6 a1 bd 43 b8 a1 3e 29 c5 e6 3e
       0.18975985 -0.07896054 0.31585893 0.45072296
000320 34 ff fc bc 5a 02 df be 76 41 ea be 58 4f fb 3d
       -0.03088341 -0.43556482 -0.45753068 0.12270993
000330 17 2b 6c bc 25 a3 63 3d ec b7 82 3d 23 56 de 3d
       -0.01441457 0.05557551 0.063827366 0.10856273
000340 49 fe d1 be 9c b9 c1 3d 90 ff cc 3e 27 4e 2a be
       -0.41014317 0.0945923 0.4003873 -0.16631375
000350 ce 68 91 bd 8b 05 5f 3e d6 ac 82 bd 83 c7 23 bd
       -0.07100068 0.21779458 -0.06380622 -0.03998519
000360 80 85 0e bc 42 7f af 3c 99 a9 b4 3d 34 5f 44 3d
       -0.008698821 0.021422986 0.08821411 0.047942355
000370 06 5e 31 bc a6 2e 6f 3e 51 ce 85 3b 3f 6a 00 3e
       -0.01082564 0.23357639 0.0040834327 0.1254053
000380 5c f4 16 3e 0f ed 26 3d f1 85 62 be 5a 8b 3a 3e
       0.14741653 0.04075342 -0.22121407 0.18217221
000390 a1 17 13 3e 36 19 3d 3d 57 68 1a bd 92 55 73 be
       0.14364482 0.04616662 -0.037697162 -0.23763111
0003a0 20 bc 36 bd a4 95 81 be 00 a2 50 3e 46 0f bc bd
       -0.044613004 -0.2530948 0.20374298 -0.09182601
0003b0 53 8e 66 bc 90 f4 36 be 4c 29 18 3d 85 5f e6 bc
       -0.014072019 -0.1786673 0.03714876 -0.02812172
0003c0 52 b6 cf 3c ca f2 a0 3e be ba 2c 3c 94 39 9e 3d
       0.025355492 0.31435233 0.01054257 0.07725826
0003d0 91 5d e2 3e 13 d8 22 3e 60 08 77 bd cf 51 f1 bd
       0.4421201 0.15902738 -0.06031072 -0.11783182
0003e0 1f d5 8d 3d c9 a5 e0 bb 79 49 00 bd 9a 93 04 3d
       0.06925415 -0.0068557006 -0.03132007 0.032367326
0003f0 52 19 8e 3c 5d 84 17 3d 20 21 f5 be 8a 13 e2 3b
       0.017346058 0.036991466 -0.47876835 0.006899302

output_layer.bias f4 [3]
000000 16 f1 4f 3e 09 16 f6 3e 9d bc 0f bf
       0.2030681 0.48063686 -0.56147176
