NN_models/NN_model.pth (torch, 4837 bytes, 4 tensors)

hidden_layer_1.weight f4 [64, 8]
0.17117931 0.15110631 0.042797767 0.2794065 -0.010749983 -0.1508485 -0.35126707 -2.1430526
-0.28127566 -0.01728361 0.12928179 -0.09083169 0.2515672 0.19533925 -0.15298977 -1.1653496
0.08198804 0.26342183 0.34444645 -0.070729665 -0.0464638 0.0842863 -0.27968878 -7.2139897
0.03801256 0.4014982 -0.4749329 -0.22650388 0.06416103 -0.2392553 0.3784 -0.8069417
0.095029116 -0.35383573 -0.051203035 0.21788232 -0.25118253 0.22917998 0.21575533 13.402015
-0.004920488 0.018199569 0.42646992 0.2528352 0.15267335 -0.4195675 -0.0018853523 -4.506733
0.022091914 -0.07200572 0.08930034 0.16567652 -0.26546198 0.33463526 0.31215927 -14.061014
-0.33389267 0.27171078 -0.27895874 0.22519714 -0.34410322 0.10647634 -0.35068077 0.2636606
-0.04428624 0.4237956 -0.018131772 0.36058363 0.2787423 -0.29026386 0.085102655 -2.1887553
0.29917896 0.17353974 -0.21922766 -0.19606195 0.16518985 -0.3471835 -0.05526188 -5.8663125
-0.16237567 -0.21451285 0.08465019 0.47169864 -0.011434974 0.3454401 -0.2264401 2.3748991
0.06836288 0.25415033 -0.035090964 0.57622695 -0.19683093 -0.41439828 -0.0995983 -1.0077158
-0.13331401 0.06309994 -0.00429763 -0.08403133 -0.07154883 0.14008251 -0.27892375 -0.039189782
0.33471772 -0.11884689 -0.15462293 0.15760505 0.09947195 0.04597068 0.25752875 5.432616
-0.05167413 0.11510847 0.0075198235 -0.03537181 -0.18978728 -0.100577496 0.025713883 -0.27499187
0.12125992 -0.17580318 -0.17106454 -0.11987345 0.12849015 -0.018576335 0.39801747 4.3600926
0.3313165 -0.32592246 0.06142419 0.28604603 -0.31572902 0.3103746 0.087433286 -16.769402
-0.24858204 -0.008260671 0.034354523 0.09031691 0.09686783 0.31684333 0.13499969 -0.6698704
0.046750147 0.32138088 -0.41984102 -0.31884325 0.0013620307 0.24149425 0.5150343 0.63196796
-0.11303287 0.04657353 0.049905322 -0.13953009 0.046862617 0.11756151 -0.35335648 -0.009542131
-0.02624033 0.09541861 0.43470436 0.27769467 0.067509525 -0.13128595 -0.09732676 -1.5145665
0.17377734 0.29295012 0.2911054 0.41514653 0.25822642 -0.4684199 -0.42862657 0.9439412
0.22532065 0.10091525 -0.23819593 -0.15698613 -0.10426137 0.44236296 0.21459682 -2.5542455
-0.05015456 0.05450033 -0.08717746 0.06030554 0.23861565 0.22375494 0.35784906 10.652101
-0.04844319 -0.3028074 -0.13576113 0.18510446 0.15819536 -0.12044431 0.13547657 0.43948725
-0.23138794 0.36745927 -0.23302478 0.29538876 -0.23244861 0.37217632 0.20884432 -0.8521983
0.15605487 -0.22057062 0.25044146 0.23823425 0.1540091 -0.088340394 0.22901581 -8.33355
0.066246904 -0.27070343 0.1728178 0.29800633 -0.1268697 0.25268763 0.1783966 -14.553808
-0.104343735 0.2961103 -0.09478356 -0.36350694 0.3027056 -0.042417675 -0.083791494 -1.4441319
-0.13395794 0.27944127 0.28553623 -0.294976 0.18221767 0.35217685 0.0005422678 0.7997539
-0.12956691 0.28310904 -0.3729939 -0.11088656 0.17015417 -0.16689092 0.19014727 -1.2733974
0.28042886 -0.28839934 0.050044917 -0.44609565 0.0409399 0.23421347 0.37021455 -3.5218515
00000000: a149 2f3e 9dbb 1a3e b64c 2f3d 5e0e 8f3e
00000010: b220 30bc 0778 1abe 47d9 b3be c627 09c0
00000020: 5d03 90be 5b96 8dbc 7262 043e f705 babd
00000030: 6bcd 803e 0307 483e 5aa9 1cbe 2d2a 95bf
00000040: 58e9 a73d 3adf 863e 495b b03e b7da 90bd
00000050: d350 3ebd 4c9e ac3d 5e33 8fbe 01d9 e6c0
00000060: 0fb3 1b3d 2c91 cd3e 682a f3be a2f0 67be
00000070: dc66 833d 57ff 74be a5bd c13e bb93 4ebf
00000080: a09e c23d f529 b5be 46ba 51bd 8b1c 5f3e
00000090: ff9a 80be 28ae 6a3e f7ee 5c3e a76e 5641
000000a0: 0c3c a1bb 4317 953c 445a da3e 9e73 813e
000000b0: 6756 1c3e 8dd1 d6be ed1d f7ba 2837 90c0
000000c0: 1afa b43c bc77 93bd 19e3 b63d 1ba7 293e
000000d0: a2ea 87be 5055 ab3e 57d3 9f3e eaf9 60c1
000000e0: fbf3 aabe ad1d 8b3e aed3 8ebe 149a 663e
000000f0: 4c2e b0be 4410 da3d 6e8c b3be 86fe 863e
00000100: 7d65 35bd bdfb d83e 1589 94bc 6b9e b83e
00000110: 50b7 8e3e 779d 94be 4d4a ae3d 9114 0cc0
00000120: fc2d 993e 67b4 313e 377d 60be 77c4 48be
00000130: 8727 293e 09c2 b1be 485a 62bd d5b8 bbc0
00000140: cf45 26be 42a9 5bbe 145d ad3d 7c82 f13e
00000150: c259 3bbc 86dd b03e eadf 67be 59fe 1740
00000160: d601 8c3d fe1f 823e 8bbb 0fbd 9c83 133f
00000170: 0c8e 49be 032c d4be 32fa cbbd d5fc 80bf
00000180: 7883 08be 8b3a 813d 22d3 8cbb 9e18 acbd
00000190: 3188 92bd ca71 0f3e 18cf 8ebe 7785 20bd
000001a0: 1f60 ab3e 0066 f3bd 7955 1ebe 3863 213e
000001b0: f3b7 cb3d c04b 3c3d cfda 833e fed7 ad40
000001c0: 41a8 53bd fdbd eb3d da68 f63b 08e2 10bd
000001d0: 9957 42be 93fb cdbd eca5 d23c bccb 8cbe
000001e0: 1f57 f83d c005 34be 8b2b 2fbe 3680 f5bd
000001f0: ec92 033e 662d 98bc f2c8 cb3e e185 8b40
00000200: 51a2 a93e 4fdf a6be ee97 7b3d a074 923e
00000210: 3ca7 a1be 6be9 9e3e 3910 b33d bc27 86c1
00000220: 4a8c 7ebe c457 07bc 54b7 0c3d 12f8 b83d
00000230: a462 c63d 4a39 a23e 5c3d 0a3e a07c 2bbf
00000240: 157d 3f3d 098c a43e 67f5 d6be 6c3f a3be
00000250: 2b86 b23a 454a 773e 4ad9 033f a7c8 213f
00000260: c77d e7bd e3c3 3e3d 8669 4c3d fae0 0ebe
00000270: 04f3 3f3d 17c4 f03d 24eb b4be 9956 1cbc
00000280: f6f5 d6bc d56a c33d 9291 de3e ff2d 8e3e
00000290: 6f42 8a3d d36f 06be 4153 c7bd 51dd c1bf
000002a0: b0f2 313e 8ffd 953e c40b 953e 168e d43e
000002b0: 4136 843e bcd4 efbe f174 dbbe 21a6 713f
000002c0: 75ba 663e a8ac ce3d a2e9 73be f9c0 20be
000002d0: fc86 d5bd 667d e23e 45bf 5b3e c278 23c0
000002e0: de6e 4dbd bd3b 5f3d 198a b2bd f102 773d
000002f0: a957 743e 0420 653e fe37 b73e 016f 2a41
00000300: 5e6c 46bd 9209 9bbe f704 0bbe 068c 3d3e
00000310: f7fd 213e 82ab f6bd 5fba 0a3e 7904 e13e
00000320: f6f0 6cbe 9f23 bc3e 0c9e 6ebe 323d 973e
00000330: 0207 6ebe e58d be3e 49db 553e ab29 5abf
00000340: d9cc 1f3e 44dd 61be dd39 803e aef3 733e
00000350: 90b4 1d3e cfeb b4bd 1f83 6a3e 3956 05c1
00000360: 75ac 873d a499 8abe 26f7 303e 4994 983e
00000370: 21ea 01be 4660 813e 99ad 363e 66dc 68c1
00000380: 2bb2 d5bd c59b 973e e21d c2bd 951d babe
00000390: 3afc 9a3e 28be 2dbd e09a abbd 50d9 b8bf
000003a0: 452c 09be ed12 8f3e ce31 923e 1807 97be
000003b0: 4597 3a3e 8650 b43e fa26 0e3a acbc 4c3f
000003c0: 30ad 04be abf3 903e 0ef9 bebe 7e18 e3bd
000003d0: e53c 2e3e 74e5 2abe f7b5 423e b0fe a2bf
000003e0: 5f94 8f3e 14a9 93be e6fb 4c3d a666 e4be
000003f0: 99b0 273d a8d5 6f3e c38c bd3e 0466 61c0

hidden_layer_1.bias f4 [64]
-0.30874062 0.23590541 -0.7975415 -0.06507388 0.58483493 -0.75810593 -0.8263325 0.111161724
-0.38896525 -0.944168 0.20401803 -0.51204073 -0.26578763 0.80493444 -0.19077413 0.695347
-0.7668079 -0.6301307 0.0007054792 -0.017135601 -0.58122444 0.3635903 -0.16322774 0.5371377
-0.3094104 0.34763435 -0.7502447 -0.65282214 -0.0041152523 0.408201 -0.2694071 -0.6752413
0.23033045 0.44694272 -0.067582205 -0.24018331 -0.16109937 0.66936237 0.03385932 0.19570409
0.008777081 0.85660344 0.26992005 0.34998474 -0.21832606 -0.69819754 0.5238221 -0.10147964
0.7628129 0.5631943 1.1779423 0.076918915 -0.18149933 0.27006873 -0.23039499 0.3129492
-0.02855314 0.14549138 0.5286505 0.2105158 0.12208749 0.1640019 -0.5154723 -0.43631005
00000000: 4013 9ebe 3091 713e ae2b 4cbf 7445 85bd
00000010: beb7 153f 3b13 42bf 878a 53bf c2a8 e33d
00000020: 7426 c7be feb4 71bf 1aea 503e 1a15 03bf
00000030: 5115 88be 2f10 4e3f 4b5a 43be 4302 323f
00000040: 864d 44bf 3f50 21bf e8ef 383a f65f 8cbc
00000050: 20cb 14bf 8228 ba3e 2c25 27be db81 093f
00000060: 0a6b 9ebe 21fd b13e 0910 40bf 5a1f 27bf
00000070: 3dd9 86bb b9ff d03e baef 89be 9ddc 2cbf
00000080: bfdb 6b3e add5 e43e 8a68 8abd 9df2 75be
00000090: 3cf7 24be 555b 2b3f 12b0 0a3d a766 483e
000000a0: bfcd 0f3c 5d4a 5b3f f632 8a3e 3331 b33e
000000b0: de90 5fbe 13bd 32bf 3519 063f 8fd4 cfbd
000000c0: b547 433f 802d 103f d0c6 963f aa87 9d3d
000000d0: f6da 39be 7346 8a3e aaec 6bbe e13a a03e
000000e0: 46e8 e9bc b1fb 143e a455 073f 7491 573e
000000f0: 0209 fa3d 1df0 273e fef5 03bf 0864 dfbe

output_layer.weight f4 [3, 64]
-0.046245888 -0.1806509 -0.16275552 -0.28682297 0.21656698 -0.25558788 -0.5343067 0.09333964
0.03626203 -0.07646785 0.21914971 0.16474728 0.08743733 -0.02637524 0.074336365 0.045263596
-0.09315149 0.019077532 -0.090242594 0.05735995 0.036059275 0.20623772 -0.009356852 0.40599823
0.34322557 -0.18195546 -0.07527806 -0.26009178 -0.11606339 -0.23023826 -0.43379134 -0.07429538
0.022037089 0.0744484 0.113663584 0.07239834 0.01951933 0.30725625 0.23654982 0.19734101
-0.06453346 0.120639354 0.123735696 0.044962607 0.05207847 -0.48179787 -0.03265975 -0.35074082
0.02352229 0.008185746 0.04535954 -0.2293794 -0.102180675 0.051165327 0.044824168 0.32737902
0.13997762 0.09001587 -0.0468765 -0.13455448 0.11427785 -0.42701107 -0.06085397 -0.30927953
-0.17667572 -0.04249932 -0.3389793 0.4640799 0.22995195 -0.9537959 -0.3016775 0.09067431
-0.58040446 -0.15305698 0.033829976 -0.21583426 -0.07379481 0.10888705 0.10604913 0.21045114
-0.10012579 -0.17758982 0.3010086 0.07576175 -0.208303 -0.043885406 0.11924664 0.33786505
-0.24903579 0.200795 -0.17635329 -0.2712081 -0.036270827 0.2734725 0.07544671 0.095459975
-0.070152715 0.20054184 -0.1598606 -0.4245712 -0.09043297 0.5246104 -0.0012249814 0.15608099
0.11269607 0.11664664 -0.0914987 0.34767497 -0.013784438 -0.8748316 0.08942815 1.0198812
0.229778 0.1339547 0.14362743 0.2884335 -0.10147619 -0.08998886 -0.075524464 -0.5057716
-0.1750065 -0.011455699 0.15885821 0.11745993 -0.06351327 -0.08406358 -0.42672178 0.11483903
-0.007130687 0.13364787 0.39278123 0.14598112 -0.44839966 0.7956734 0.77078104 0.0010532439
0.07791203 0.075494856 -0.24033941 0.16278388 -0.112520486 -0.23501463 0.04286605 -0.23548026
0.28059635 0.08793338 -0.034794983 -0.11014919 0.21761158 0.032027658 0.14023818 -0.8018709
-0.1353578 0.22333941 0.3096862 0.56478864 0.27995563 -0.15339911 0.47567797 0.17780435
-0.04480779 -0.36825812 0.0626115 0.18415067 0.05037409 -0.8848696 -0.03864698 -0.12187936
0.013831735 -0.19372809 -0.05012043 -0.13035649 0.01586403 0.9955021 -0.0695162 0.1285253
-0.4003368 -0.20523736 -0.19318466 0.022573825 0.0054083318 -0.09447762 -0.07605757 0.055910617
-0.046244364 -0.36569566 -0.026045201 -0.1778728 -0.15259703 0.39678004 0.46810004 0.12218012
00000000: 546c 3dbd 8dfc 38be 62a9 26be 76da 92be
00000010: bcc3 5d3e 6adc 82be 53c8 08bf da28 bf3d
00000020: 7f87 143d 2d9b 9cbd c868 603e 83b3 283e
00000030: 5812 b33d e310 d8bc aa3d 983d 5266 393d
00000040: 35c6 bebd 7c48 9c3c 1cd1 b8bd 44f2 6a3d
00000050: e4b2 133d fb2f 533e 7b4d 19bc 00df cf3e
00000060: 43bb af3e 8852 3abe 622b 9abd c02a 85be
00000070: a5b2 edbd 94c3 6bbe e619 debe 2d28 98bd
00000080: 2087 b43c 6778 983d 74c8 e83d 9545 943d
00000090: 00e7 9f3c b150 9d3e 1e3a 723e c313 4a3e
000000a0: 1e2a 84bd c411 f73d 2469 fd3d b62a 383d
000000b0: 3c50 553d 36ae f6be 3bc6 05bd 4d94 b3be
000000c0: d1b1 c03c 821d 063c edca 393d 6fe2 6abe
000000d0: 1a44 d1bd bc92 513d 8c99 373d 399e a73e
000000e0: 4b56 0f3e 3e5a b83d 9301 40bd a6c8 09be
000000f0: 810a ea3d 32a1 dabe 0342 79bd e359 9ebe
00000100: 7bea 34be c413 2ebd b28e adbe e19b ed3e
00000110: 8678 6b3e f82b 74bf 7975 9abe 74b3 b93d
00000120: 6395 14bf f8ba 1cbe 4d91 0a3d a803 5dbe
00000130: bc21 97bd 2c00 df3d 4930 d93d 8180 573e
00000140: c00e cdbd 1bda 35be cd1d 9a3e fa28 9b3d
00000150: 624d 55be 2fc1 33bd 9537 f43d a6fc ac3e
00000160: 3d03 7fbe 349d 4d3e f595 34be cadb 8abe
00000170: b890 14bd 9604 8c3e ce83 9a3d 8580 c33d
00000180: 3aac 8fbd d75a 4d3e 7fb2 23be 6561 d9be
00000190: ec34 b9bd de4c 063f 8e8f a0ba b2d3 1f3e
000001a0: 32cd e63d 6fe4 ee3d ac63 bbbd 7402 b23e
000001b0: 20d8 61bc f7f4 5fbf 1b26 b73d 788b 823f
000001c0: ed4a 6b3e 6c2b 093e 1213 133e 8ead 933e
000001d0: c0d2 cfbd 144c b8bd 92ac 9abd 3f7a 01bf
000001e0: e734 33be afb0 3bbc baab 223e d58e f03d
000001f0: 3f13 82bd 8729 acbd 477b dabe ba30 eb3d
00000200: 8aa8 e9bb fdda 083e 9f1a c93e 137c 153e
00000210: a494 e5be 40b1 4b3f e851 453f 000d 8a3a
00000220: 5890 9f3d 0c9d 9a3d 891b 76be d1b0 263e
00000230: 2471 e6bd ada7 70be 5094 2f3d bd21 71be
00000240: 53aa 8f3e 6a16 b43d 2f85 0ebd e695 e1bd
00000250: 92d5 5e3e 6f2f 033d 999a 0f3e 6947 4dbf
00000260: 3c9b 0abe 16b3 643e 318f 9e3e fd95 103f
00000270: 5856 8f3e a814 1dbe 108c f33e 5812 363e
00000280: 6088 37bd 548c bcbe 753a 803d fe91 3c3e
00000290: 1055 4e3d d086 62bf 4c4c 1ebd e39b f9bd
000002a0: 809e 623c a860 46be 144b 4dbd 2c7c 05be
000002b0: 48f5 813c 3ad9 7e3f 825e 8ebd 239c 033e
000002c0: f2f8 ccbe be29 52be 33d2 45be beec b83c
000002d0: 6038 b13b 7c7d c1bd 12c4 9bbd 8802 653d
000002e0: bb6a 3dbd 763c bbbe bf5c d5bc 4a24 36be
000002f0: 6542 1cbe c126 cb3e cfaa ef3e 9239 fa3d

output_layer.bias f4 [3]
0.3284319 0.50153214 -0.57485414
00000000: 3a28 a83e 6964 003f a429 13bf
